Assets/hider ai/HiderAI.onnx (onnx, 94496 bytes, 13 tensors)

discrete_act_size_vector f4 [1, 3]
0	0x40000000	2.0
1	0x40400000	3.0
2	0x40e00000	7.0

network_body.observation_encoder.processors.0.normalizer.running_mean f4 [22]
0	0x409b3897	4.850658
1	0x3cc6fa5e	0.024289306
2	0x40b277d8	5.5771294
3	0x40d7702d	6.7324433
4	0x40ba087b	5.813535
5	0x40ec007d	7.3750596
6	0x40985859	4.7607846
7	0x40f1ae45	7.552523
8	0x406de29c	3.7169561
9	0x40ea2559	7.317059
10	0x40dbf527	6.873676
11	0x40c0cde3	6.0251327
12	0x41084f7e	8.519407
13	0x40a10df6	5.032954
14	0x4183d17c	16.477287
15	0x4073af31	3.8075678
16	0x00000000	0.0
17	0xbcb77e49	-0.022399085
18	0x00000000	0.0
19	0x3b97af78	0.004629072
20	0x36903dbd	4.2987217e-06
21	0x3ae7f301	0.0017696322

network_body._body_endoder.seq_layers.0.weight f4 [128, 22]
0	0x3e1dc965	0.15408857
1	0xbe3ec50e	-0.18629858
2	0xbdeb9ae7	-0.11504155
3	0x3e776561	0.24159767
4	0x3d6d820e	0.057985358
5	0xbe5ec413	-0.21754484
6	0x3c0d0409	0.008606919
7	0xbe628ac1	-0.22123243
8	0x3dbf922c	0.09354052
9	0xbe9aad03	-0.30210122
10	0x3c60a48d	0.013711107
11	0xbead5db2	-0.33860546
12	0x3e81ed75	0.25376478
13	0xbdd5e136	-0.10443346
14	0x3d0e7cbd	0.03478693
15	0x3d3cc51b	0.046086412
16	0x3de46592	0.111521855
17	0xbeb7c24e	-0.3589043
18	0xbe5106aa	-0.20412698
19	0xbe8522ff	-0.26003262
20	0x3e3f4ec9	0.18682398
21	0x3efb4e38	0.49083114
22	0xbec34c03	-0.3814393
23	0x3e1a2edb	0.15056936
24	0xbdf87929	-0.121324845
25	0x3e4ab699	0.19796218
26	0x3d89c322	0.06726672
27	0xbdc24aea	-0.09486945
28	0xbc8db9c7	-0.0173005
29	0x3ea260ba	0.31714422
30	0x3ef0e9d0	0.47053385
31	0x3ca2d103	0.019875055
32	0x3c229be0	0.009924859
33	0xbdd53ce3	-0.10412004
34	0xbdf1d19e	-0.118075594
35	0xbe21da28	-0.15805876
36	0x3e5da08f	0.2164328
37	0x3de2668c	0.110547155
38	0x3e88266e	0.2659182
39	0x3e0be4bd	0.13661475
40	0x3cbdefd7	0.023185654
41	0x3d8c2cb7	0.06844466
42	0x3d363c4c	0.044491097
43	0xbe2f1fc3	-0.1710196
44	0x3da4d34d	0.08048115
45	0x3ef90f57	0.48644516
46	0xbe9be2db	-0.30446514
47	0xbee1602d	-0.4401869
48	0x3e509169	0.2036797
49	0x3e2f4d94	0.17119437
50	0x3d6152a1	0.05501044
51	0x3e81e899	0.2537277
52	0xbced1839	-0.028942214
53	0x3eaabfcd	0.33349457
54	0x3e0bf348	0.13667023
55	0x3e784423	0.24244742
56	0x3e2cb75d	0.16866823
57	0x3d0119f7	0.031518903
58	0x3ee4f2c9	0.4471648
59	0x3dd7f76f	0.10545241
60	0x3cbcd57e	0.02305102
61	0x3e83cfe4	0.25744545
62	0xbd6af07d	-0.057358254
63	0x3e0c4f06	0.1370202
64	0x3eced30b	0.40395388
65	0xbeddd48b	-0.4332622
66	0x3e98232e	0.2971434
67	0x3e49b629	0.19698395
68	0x3e695c0f	0.22789024
69	0xbe8a1618	-0.2696998
70	0x3e87963f	0.26481816
71	0x3e930d2b	0.28720984
72	0xbea2bdf6	-0.31785554
73	0xbde10b48	-0.1098848
74	0xbdc8f44c	-0.09812221
75	0x3d710af5	0.05884834
76	0xbe15f57b	-0.14644425
77	0x3df9bb33	0.121939085
78	0x3e1a5334	0.15070802
79	0x3e2d82ec	0.16944474
80	0x3eba237c	0.36355197
81	0x3e02de68	0.12780154
82	0xbcbc13bc	-0.022958629
83	0x3e41d71f	0.18929718
84	0x3e3fbfa3	0.18725447
85	0xbe42a584	-0.19008452
86	0x3d7fb4e1	0.06242836
87	0x3cc28489	0.023744838
88	0x3efb54a2	0.49088007
89	0x3eb2fb18	0.34957194
90	0x3f29d70a	0.6634375
91	0x3c625a63	0.013815495
92	0x3d83c834	0.0643467
93	0xbd8be653	-0.0683104
94	0x3d270be8	0.04078284
95	0x3ea95018	0.3306892
96	0x3da604ab	0.08106359
97	0x3ee49028	0.44641232
98	0x3d7c3396	0.061572634
99	0xbcfcb1f6	-0.030846577
100	0xbe4f93ce	-0.20271227
101	0xbe3cdf00	-0.18444443
102	0xbe716631	-0.23574139
103	0x3cbeb8b9	0.023281442
104	0xbe237345	-0.1596194
105	0xbe5631f8	-0.20917499
106	0xbc32222a	-0.010872403
107	0xbe0e5f3b	-0.13903515
108	0x3d959a19	0.073047824
109	0xbcc294b0	-0.02375254
110	0xbe1cae94	-0.15300971
111	0xbdf389a6	-0.11891489
112	0x3e71149f	0.23543023
113	0xbed979ff	-0.42475888
114	0xbebd271a	-0.36943895
115	0x3d14be27	0.036314156
116	0x3dd8d688	0.105877936
117	0xbdb3f6f7	-0.08787339
118	0xbeac98db	-0.3371037
119	0x3d6b68cf	0.057473
120	0xbc8dcf44	-0.017310746
121	0xbde33a63	-0.11095121
122	0xbdacc929	-0.08436806
123	0xbe7e915e	-0.2486014
124	0xbe925549	-0.28580692
125	0xbea33d72	-0.31882817
126	0xbcff9402	-0.031198505
127	0xbdad8e80	-0.08474445
128	0xbe60e4d1	-0.21962287
129	0x3eaa3279	0.33241633
130	0x3e576e69	0.21038212
131	0x3ed6ca8c	0.41951406
132	0xbe80ef7c	-0.25182712
133	0x3d6d46dc	0.057928905
134	0x3d0cf64e	0.034414582
135	0xbeaa58cd	-0.33270875
136	0x3ed35f40	0.41283607
137	0xbedab6b2	-0.4271751
138	0x3d805991	0.062670834
139	0x3dae3092	0.08505358
140	0xbd90f446	-0.070778415
141	0xbcbeb88c	-0.023281358
142	0xbd399d35	-0.04531594
143	0xbd2ea5df	-0.042638656
144	0xbd506e17	-0.05088624
145	0x3e3ced88	0.18449986
146	0xbe22fc65	-0.15916593
147	0x3b8379a7	0.004012305
148	0x3e5d0ff5	0.21588118
149	0x3d9eaf02	0.07748224
150	0x3e25da0f	0.16196464
151	0xbe08626e	-0.13318798
152	0xbd68a8a0	-0.05680144
153	0xbedf3831	-0.43597558
154	0xbe00934a	-0.12556186
155	0xbe903879	-0.28168085
156	0x3db3a9bc	0.08772609
157	0x3ef6c669	0.4819825
158	0xbe2b8fa1	-0.16754009
159	0x3e87a9b9	0.26496676
160	0x3c862de3	0.016379302
161	0x3e1e5eda	0.1546587
162	0xbec5c28f	-0.38625
163	0xbe42cbfa	-0.19023123
164	0x3ded93d3	0.11600461
165	0xbe42da1f	-0.19028519
166	0x3eb685e4	0.35649025
167	0x3dacc8df	0.084367506
168	0x3e91a886	0.28448886
169	0x3bd80b5b	0.0065931506
170	0xbe26b2ad	-0.16279097
171	0xbe3f2100	-0.18664932
172	0x3eaa8915	0.3330771
173	0x3d031afa	0.03200815
174	0xbdf34244	-0.118778735
175	0x3ed41b67	0.41427156
176	0xbcb15e4f	-0.021651415
177	0xbdf6a315	-0.12042824
178	0xbcc4383e	-0.0239526
179	0x3ee919f2	0.45527607
180	0x3da983d7	0.082770996
181	0xbe46d394	-0.19416648
182	0x3e7ceac1	0.24698927
183	0x3b93719c	0.0044996273
184	0xbe5b4e9d	-0.21416707
185	0xbeef1c7b	-0.46701416
186	0x3d43d62b	0.04781167
187	0xbeac880c	-0.33697546
188	0x3ee22c00	0.44174194
189	0x3e5e0544	0.21681696
190	0xbeb23114	-0.3480307
191	0xbebd01bf	-0.36915395
192	0xbea77f84	-0.32714474
193	0xbdba848f	-0.09107315
194	0x3eb6bf70	0.3569293
195	0x3de9eeac	0.11422476
196	0x3cc8cef6	0.02451275
197	0xbe5a3fe2	-0.21313432
198	0xbd71c664	-0.05902709
199	0x3d2b4704	0.041815773
200	0xbd2422dd	-0.04007231
201	0xbe7a3777	-0.2443522
202	0x3e95d37d	0.29262915
203	0x3e437de3	0.1909099
204	0xbe2c74e6	-0.16841468
205	0xbe1b806e	-0.15185711
206	0xbe587246	-0.21137342
207	0x3b6d6feb	0.0036230038
208	0xbdf391ef	-0.11893069
209	0x3db47ca8	0.08812839
210	0x3d6d98a3	0.058006894
211	0x3eb50a3b	0.35359368
212	0xbd21e377	-0.039523568
213	0xbdd6194a	-0.10454042
214	0xbe2ceb88	-0.16886723
215	0x3c5ee8b5	0.013605286
216	0x3e94e74d	0.29082718
217	0xbec8a1da	-0.39185983
218	0xbdcc235f	-0.09967684
219	0xbe90942d	-0.2823805
220	0xbc0e20dd	-0.008674827
221	0xbe9d8c19	-0.3077095
222	0x3e6c663b	0.23085873
223	0xbe633ac5	-0.22190388
224	0xbee430e1	-0.44568542
225	0x3df5e9ff	0.12007522
226	0x3d528609	0.051397357
227	0xbeb79584	-0.3585626
228	0xbd6373e7	-0.055530455
229	0x3e493998	0.19650877
230	0xbe82bf29	-0.2553647
231	0x3cba40de	0.02273601
232	0xbea43a85	-0.32075897
233	0x3e572563	0.21010356
234	0x3d34e3c3	0.044162523
235	0xbe2b3880	-0.16720772
236	0xbe7e3719	-0.24825706
237	0xbd7a4681	-0.061102394
238	0x3d10a56f	0.03531402
239	0x3e304a33	0.17215805
240	0xbd58bae0	-0.052912593
241	0x3e513054	0.20428592
242	0xbd99dbfe	-0.07512663
243	0x3e502ae0	0.20328856
244	0x3d0576a1	0.032583836
245	0xbeb4a7fc	-0.35284412
246	0x3e4aa791	0.19790484
247	0xbcdf16a6	-0.02723248
248	0xbda54c63	-0.0807121
249	0x3dd7b304	0.105321914
250	0xbe91bc23	-0.2846385
251	0xbf0ae3ab	-0.54253644
252	0x3e228376	0.15870461
253	0xbe594ebf	-0.21221446
254	0x3de446dd	0.111463286
255	0xbe8f9cd5	-0.2804934

network_body._body_endoder.seq_layers.0.bias f4 [128]
0	0x3d0c935b	0.034320217
1	0x3de958c0	0.11393881
2	0x3c6dceef	0.014514669
3	0x3d2842aa	0.0410792
4	0xbd190772	-0.037360616
5	0x3db1616b	0.08661159
6	0x3d9cc704	0.07655147
7	0x3cca873d	0.02472269
8	0x3e0993e0	0.13435316
9	0x3d7daf8c	0.061934993
10	0x3dcba631	0.09943808
11	0x3dfe43dd	0.12415288
12	0x3d84967b	0.06474014
13	0x3def5cfa	0.11687656
14	0x3de556ea	0.11198218
15	0x3e0afd91	0.1357329
16	0x3d0c18a8	0.0342032
17	0x3cf38039	0.029724227
18	0x3a21ca62	0.000617182
19	0x3db27591	0.0871383
20	0xbb53ab15	-0.0032298018
21	0x3b969267	0.0045950892
22	0x3e05dd44	0.13072687
23	0x3de86d7a	0.11349006
24	0x3dffb45d	0.124855734
25	0x3cbba62e	0.02290639
26	0xbc030c94	-0.007998604
27	0x3e0cb01c	0.13739055
28	0x3d931efb	0.071836434
29	0x3d7e2a97	0.062052336
30	0xba3bb1d6	-0.00071599835
31	0x3dc0ba28	0.094105065
32	0x3e036f1c	0.12835354
33	0x3e0d1187	0.13776217
34	0x3dea647f	0.11444949
35	0x3d201f6e	0.039092474
36	0x3cf1af43	0.029502517
37	0x3d9f27e5	0.07771281
38	0x3e28bd5c	0.16478485
39	0x3db92809	0.09040839
40	0x3e0fec40	0.14054966
41	0x3d86addf	0.06576132
42	0x3d0b861b	0.03406344
43	0x3dcffd23	0.10155704
44	0x3e14f11a	0.14545098
45	0x3d99ab28	0.075033486
46	0x3d2182d0	0.039431393
47	0xbbcd8696	-0.0062721474
48	0x3dbaf7b0	0.09129274
49	0x3d48de09	0.049039874
50	0x3d198086	0.037476085
51	0x3d6495e9	0.055807028
52	0x3d89da3d	0.06731079
53	0x3e1f03d5	0.15528806
54	0x3df5548c	0.11979017
55	0x3d68baa4	0.05681862
56	0x3e012cd2	0.12614754
57	0xbce2a78b	-0.027667781
58	0xbd3988ab	-0.045296352
59	0x3d05b5e4	0.032644168
60	0x3d4eda44	0.050501123
61	0x3df15bdd	0.117851
62	0x3dcdf58f	0.10056602
63	0x3daa5cb2	0.083184615
64	0x3ddc78d7	0.10765236
65	0x3d922ac0	0.0713706
66	0x3d141a26	0.03615775
67	0x3dba736d	0.09104047
68	0x3da61613	0.08109679
69	0x3d831890	0.06401169
70	0xbadd7e9c	-0.0016898694
71	0xbd83084e	-0.06398068
72	0x3e33262e	0.17495033
73	0x3e08f2bd	0.13373847
74	0x3e01e316	0.12684283
75	0x3dad5e3d	0.0846524
76	0x3d9f754d	0.07786045
77	0x3deec216	0.11658113
78	0x3e0320c6	0.12805471
79	0x3da6c6fa	0.081434205
80	0x3cb8d9b8	0.022564754
81	0x3c02b2f4	0.007977236
82	0x3cc207d2	0.02368537
83	0x3d9f2861	0.077713735
84	0x3e3b329a	0.18281022
85	0x3d9747fa	0.07386775
86	0x3d7c562c	0.061605617
87	0x3db0514d	0.08609257
88	0x3e45703c	0.19281095
89	0x3d4146bc	0.0471866
90	0x3df8e384	0.1215277
91	0x3da59656	0.08085315
92	0x3dcc3153	0.09970345
93	0x3d9862c0	0.0744071
94	0x3da0c41a	0.078499034
95	0x3d71ad1b	0.059002977
96	0x3bb04458	0.005379241
97	0x3da9a644	0.08283666
98	0x3e14a36e	0.14515468
99	0x3e10fdf8	0.14159381
100	0x3dc0bcbd	0.09410999
101	0x3d4d98d5	0.05019458
102	0x3c2d56f4	0.010579813
103	0x3e0074cf	0.12544559
104	0x3d36fd43	0.044675123
105	0x3d71065a	0.058843948
106	0xbcf42946	-0.029804837
107	0x3e0363f5	0.128311
108	0x3df99baf	0.121878974
109	0xbc639e59	-0.0138927335
110	0x3e413874	0.18869191
111	0x3dcacb2d	0.09902034
112	0x3df582b8	0.11987823
113	0xbd681152	-0.056657143
114	0xbd5d894d	-0.05408602
115	0xbc7cca6d	-0.015429121
116	0x3d8f8a70	0.07008827
117	0xbcb1e868	-0.021717265
118	0x3e0e7b50	0.13914227
119	0x3df4e85b	0.11958381
120	0x3d94acd0	0.07259524
121	0xbc9a0ff3	-0.018806433
122	0x3df448d7	0.119279556
123	0x3de55037	0.111969404
124	0x3dc9b2e6	0.09848575
125	0x3de6a9b9	0.11262841
126	0x3d6e491e	0.0581752
127	0x3d622f73	0.055221032

network_body._body_endoder.seq_layers.2.weight f4 [128, 128]
0	0xbe38500a	-0.17999282
1	0xbc3914d7	-0.0112964725
2	0x3e062093	0.13098364
3	0x3d73227d	0.059359062
4	0xbe4e973e	-0.20174882
5	0x3d374bbf	0.04474997
6	0x3e174e85	0.14776047
7	0x3d5214fe	0.05128955
8	0xbd47ce25	-0.04878058
9	0x3d2146f5	0.03937431
10	0xbaa61c6e	-0.0012673268
11	0xbbd22934	-0.006413603
12	0x3d2a558d	0.041585494
13	0xbde627a7	-0.11238032
14	0x3e47fa98	0.19529188
15	0x3e3e3ca9	0.18577828
16	0xbdf2e502	-0.11860086
17	0xbe062475	-0.13099845
18	0x3d646d1a	0.05576811
19	0xbc995d24	-0.01872117
20	0x3d20a02d	0.039215256
21	0xbccd1b4f	-0.025037436
22	0xbe4a9007	-0.19781505
23	0x3dab2be9	0.083579846
24	0xbce2244b	-0.027605196
25	0x3c217dac	0.009856623
26	0xbd7a9b6a	-0.06118337
27	0x3c5852cc	0.013203334
28	0x3baf994a	0.0053588497
29	0x3b87f699	0.00414927
30	0x3c6b9680	0.014379144
31	0x3dab8b75	0.08376209
32	0x3e1a48a7	0.15066777
33	0xbc95d557	-0.018290205
34	0xbdf9109c	-0.12161371
35	0x3d600f31	0.054701988
36	0xbd4691fb	-0.04847906
37	0x3e2aa4be	0.16664407
38	0x3da93fb6	0.08264105
39	0xbd4a311d	-0.049363244
40	0x3ced7eb2	0.028991077
41	0xbd88b1f4	-0.06674567
42	0x3dc9717e	0.098361
43	0xbd57c39f	-0.052676793
44	0x3de33878	0.11094755
45	0x3de75731	0.11295927
46	0xbdccc093	-0.09997668
47	0x3b196a17	0.0023409182
48	0x3d53b381	0.05168486
49	0xbe3d54e1	-0.1848941
50	0x3e14c9c0	0.14530087
51	0xbdcbd157	-0.09952038
52	0xbe111caf	-0.14171098
53	0xbd02e6a4	-0.031958237
54	0x3e7fcce6	0.24980506
55	0x3d5c5e4d	0.05380087
56	0x3d889a50	0.06670058
57	0xbd815ce9	-0.06316549
58	0x3d32573c	0.043540224
59	0xbe338221	-0.17530109
60	0xbd67ddf2	-0.056608148
61	0x3d6373a5	0.05553021
62	0x3c9805e3	0.018557495
63	0xbd2cdc54	-0.04220231
64	0x3e03e554	0.1288045
65	0x3d6ce619	0.057836626
66	0xbd9b6b9d	-0.07588885
67	0xbd1b4738	-0.037909716
68	0xbd9511b6	-0.07278769
69	0x3d34e0ec	0.044159815
70	0x3cb446e6	0.022006463
71	0x3d10fbfa	0.035396554
72	0x3e485ea1	0.19567348
73	0x3dc80e10	0.09768307
74	0x3cab28e5	0.020893523
75	0x3cdf4c38	0.027258024
76	0x3d9fd37b	0.078040086
77	0x3dc5b85f	0.096543066
78	0xbcdb8ff5	-0.026802042
79	0xbc23710c	-0.009975683
80	0x3c9f1266	0.019417953
81	0xbe2b1963	-0.16708903
82	0xbd3fd683	-0.046835434
83	0xbe257fb0	-0.1616199
84	0x3e015ffe	0.12634274
85	0x3d548c3f	0.05189156
86	0xbd24d8d6	-0.040245853
87	0x3da8281f	0.082107775
88	0x3d9f2ac7	0.07771831
89	0x3c95bf6e	0.018279757
90	0x3de5d743	0.112226985
91	0xbdd33732	-0.10313262
92	0x3e5e0160	0.21680212
93	0x3d9a5292	0.0753528
94	0x3c5a9eaf	0.013343497
95	0x3bd6c18a	0.0065538334
96	0x3dc0b388	0.09409243
97	0x3dd4ff22	0.10400225
98	0x3c0bda4c	0.008535933
99	0x3e113ba4	0.14182907
100	0xbcd6b04a	-0.026207108
101	0xbe790d2d	-0.24321432
102	0xbdb1f92e	-0.086901054
103	0x3d4c3c21	0.04986203
104	0x3d1a13b1	0.037616435
105	0x3da5c863	0.08094861
106	0x3cc26043	0.023727542
107	0x3e29ea80	0.16593361
108	0xbd8d9c85	-0.06914619
109	0xbd9a5aa4	-0.075368196
110	0x3e72747b	0.23677246
111	0x3dc14a1a	0.09437962
112	0x3de60f70	0.11233413
113	0xbda79e73	-0.08184519
114	0xbde70cc3	-0.11281731
115	0xbcbb26d0	-0.022845656
116	0x3cc5f79f	0.024165927
117	0xbde8bbbd	-0.11363933
118	0x3e5c7d4d	0.21532173
119	0x3ea1cbd6	0.31600827
120	0xbc3d586c	-0.011556726
121	0xbe36190a	-0.17782989
122	0x3d1fc415	0.039005358
123	0x3de56221	0.11200357
124	0x3d1934d8	0.03740391
125	0xbd699062	-0.05702246
126	0x3e31a9a0	0.17349863
127	0x3e4c4689	0.19948782
128	0xbaeae68f	-0.0017921495
129	0x3d7b55db	0.061361175
130	0xbddbea61	-0.107380636
131	0xbde81f54	-0.113341
132	0x3e2999e4	0.16562611
133	0xbbc15c7f	-0.005900919
134	0x3d3a7458	0.04552111
135	0x3bcf7a9e	0.006331756
136	0xbbedc88f	-0.0072565745
137	0x3df28500	0.11841774
138	0x3e1b798e	0.15183088
139	0xbd180c64	-0.03712119
140	0xbca205b3	-0.019778108
141	0xbe378fee	-0.17925999
142	0x3d99994e	0.07499944
143	0xbe12d3fc	-0.14338678
144	0xbd0ef09f	-0.034897443
145	0xbcc8182f	-0.024425594
146	0xbe1b37d4	-0.15158015
147	0xbd84d8fb	-0.06486698
148	0x3da1513e	0.07876824
149	0xbdb9c03d	-0.0906987
150	0x3b081909	0.0020766875
151	0x3d6b0d22	0.05738557
152	0xbc1e4372	-0.009659635
153	0xbd65edf1	-0.05613512
154	0xbddb8df3	-0.10720434
155	0xbd0d5460	-0.034504294
156	0x3d453dbd	0.04815458
157	0xbd92683c	-0.071487874
158	0x3d5535c8	0.052053243
159	0xbde432ef	-0.11142527
160	0xbdd7e6fe	-0.10542105
161	0xbdb41a89	-0.08794124
162	0xbd825dbd	-0.063655354
163	0x3e856ee1	0.26061156
164	0x3dc3ae0e	0.09554683
165	0x3e37c3b7	0.17945753
166	0x3cb31175	0.02185891
167	0x3dbb28c1	0.091386326
168	0x3d79ad59	0.060956333
169	0x3d7f2a2a	0.06229607
170	0x3cb274e6	0.021784257
171	0xbd97e2bf	-0.07416295
172	0x3d67ffbd	0.056640375
173	0xbd471969	-0.048608217
174	0x3c04f042	0.008113923
175	0xbcdda1e7	-0.02705474
176	0xbdc1693e	-0.094439015
177	0x3d85e927	0.06538611
178	0x3d8f28b1	0.06990183
179	0x3e43b039	0.19110192
180	0xbd94e86c	-0.072708935
181	0xbe04659e	-0.12929389
182	0xbe08c576	-0.13356575
183	0x3bd5a95c	0.0065204334
184	0xbdee3337	-0.11630862
185	0xbd90c83f	-0.07069444
186	0x3c81c010	0.015838653
187	0x3dad6e1b	0.084682666
188	0x3e54f62c	0.20797032
189	0x3e153879	0.14572324
190	0x3e514ede	0.20440242
191	0xbd9a3e80	-0.07531452
192	0xbd76e3b3	-0.060275745
193	0x3e0a4886	0.13504228
194	0xbe327402	-0.17427066
195	0xbd75dab8	-0.06002304
196	0xbe9db8da	-0.30805093
197	0xbde1de2b	-0.11028703
198	0x3e03f185	0.12885101
199	0xbd310242	-0.043215044
200	0x3c2fc465	0.010727976
201	0x3d952cbf	0.07283925
202	0x3dcd4902	0.10023691
203	0x3cf20729	0.02954443
204	0xbda4f895	-0.08055226
205	0x3d7dd219	0.061967943
206	0x3e0a8290	0.13526368
207	0x3b6ac8ce	0.0035825255
208	0xbe2d23d0	-0.16908193
209	0x3d99be51	0.07507003
210	0xbc3330af	-0.0109369
211	0x3dd4214b	0.10357913
212	0x3dd020af	0.10162484
213	0x3d3bb877	0.045830216
214	0xbd966f26	-0.07345419
215	0xbae8cd74	-0.0017761425
216	0x3ced7c66	0.028989982
217	0x3d81f435	0.06345407
218	0xbdeabe1e	-0.11462043
219	0x3e0c6247	0.13709365
220	0xbd3cbd9d	-0.046079267
221	0xbd58914c	-0.05287294
222	0xbd5b9e70	-0.053617895
223	0x3e14543b	0.14485256
224	0xbd01de13	-0.031705927
225	0xbe0124d8	-0.12611711
226	0xbe33d45d	-0.17561479
227	0xbcac4065	-0.0210268
228	0x3ccb9ee5	0.02485604
229	0xbd4254b7	-0.04744407
230	0x3df87e11	0.1213342
231	0x3e23a9ef	0.15982793
232	0x3cd06b94	0.025441922
233	0x3b5155c1	0.0031941982
234	0x3cbf76f7	0.023372157
235	0x3d496331	0.049166862
236	0x3e05aaf1	0.1305349
237	0x3d3ae71d	0.045630563
238	0xbcea6c52	-0.028616104
239	0xbcecc264	-0.028901286
240	0xbd8c09c0	-0.06837797
241	0xbe6db323	-0.23212866
242	0xbd6d47e3	-0.057929885
243	0xbd2975bb	-0.041372042
244	0x3d0c3efd	0.034239758
245	0x3c76a522	0.015054019
246	0xbda9ba91	-0.08287538
247	0x3dd59784	0.1042929
248	0x3d365a11	0.044519488
249	0x3b8d1bbb	0.0043062842
250	0x3c959daa	0.018263657
251	0xbd02c3cf	-0.03192502
252	0xbdb6a0a5	-0.08917359
253	0x3d8ab4bb	0.06772753
254	0x3c4a2ec5	0.012340252
255	0xbe69d6d1	-0.22835852

network_body._body_endoder.seq_layers.2.bias f4 [128]
0	0x3debd8f5	0.11515991
1	0x3d24bf6d	0.04022162
2	0x3b20b0a3	0.0024519346
3	0x3d4e199d	0.050317395
4	0x3db50793	0.08839335
5	0x3c8c4800	0.017124176
6	0xbc42ee62	-0.011897655
7	0xbbbf3865	-0.00583558
8	0x3b835b83	0.004008712
9	0x3d13187e	0.03591203
10	0x3dfb9d65	0.1228588
11	0x3e159a4a	0.14609638
12	0x3c2d6f15	0.010585566
13	0x3d7831e0	0.06059444
14	0x3dcefe12	0.10107054
15	0xbd636f9d	-0.055526365
16	0xbc0136e7	-0.007886625
17	0x3e0a842f	0.13526987
18	0x3dd7ca43	0.10536625
19	0x3d8beb23	0.06831958
20	0x3da5a8fd	0.080888726
21	0x3d971109	0.07376296
22	0x3cd77c23	0.02630431
23	0x3da2ee22	0.079555765
24	0xbd0bc06f	-0.034119066
25	0xbd61c154	-0.055116013
26	0x3ceb0091	0.028686794
27	0x3d810b79	0.06301016
28	0x3d9dd991	0.07707513
29	0x3d6747ee	0.056465082
30	0x3d76d479	0.060261223
31	0x3dd155eb	0.10221466
32	0x3c95dfb2	0.018295143
33	0x3d8c4b0d	0.06850252
34	0x3df1336c	0.11777386
35	0x3e01592b	0.12631671
36	0x3b03d980	0.0020118654
37	0xbbe8b94d	-0.0071021677
38	0x3dcf904e	0.10134946
39	0x3e0e3d0d	0.13890477
40	0x3cdb7991	0.026791366
41	0x3de04211	0.10950101
42	0x3dc4e158	0.096132934
43	0x3def5c66	0.116875455
44	0x3cca04e0	0.024660528
45	0xbd87d735	-0.06632844
46	0xbcc6d476	-0.024271231
47	0x3c9b4d3d	0.018957729
48	0x3d227596	0.03966292
49	0x3dbd076c	0.09229931
50	0x3d05a901	0.032631878
51	0xbdc88853	-0.09791627
52	0x3d7ac87b	0.06122635
53	0x3ced15ee	0.028941121
54	0xbce1d8ce	-0.0275692
55	0x3dcdd020	0.10049462
56	0x3d1711b2	0.03688211
57	0x3d87c951	0.06630195
58	0xbcb013e0	-0.021493852
59	0xbbae95ba	-0.0053279074
60	0xbd6ee3a7	-0.058322575
61	0xbc9ef21a	-0.019402552
62	0x3dfd7bda	0.123771384
63	0xbbcb4a18	-0.006203901
64	0x3d30d271	0.043169443
65	0xbce205e4	-0.0275907
66	0x3c9ea6c9	0.019366639
67	0x3c60cdc1	0.013720931
68	0xbc10cee6	-0.008838391
69	0x3da945df	0.0826528
70	0x3d88f581	0.06687451
71	0x3dce31f9	0.10068125
72	0x3dbedf85	0.09319977
73	0x3de99c94	0.11406818
74	0x3daacc7a	0.08339782
75	0xbd1a4c6d	-0.03767054
76	0x3d3b5341	0.045733694
77	0xbd91b656	-0.07114856
78	0x3d99fad8	0.07518548
79	0x3dc6b78d	0.09702978
80	0x3dcc5fc0	0.099792
81	0x3de71173	0.11282625
82	0x3d85b75b	0.06529113
83	0x3d9f78ad	0.07786689
84	0x3e100557	0.14064537
85	0x3dff5806	0.12467961
86	0x3dd39fe7	0.10333233
87	0x3db6b59e	0.089213595
88	0x3dc35dd1	0.095393784
89	0xbbdc9f4a	-0.006732856
90	0x3d85874c	0.065199465
91	0x3d9fa6fa	0.0779552
92	0x3df7be2f	0.120968215
93	0xbd9acc03	-0.075584434
94	0x3e0b2ff7	0.13592516
95	0x3e129950	0.14316297
96	0x3ce1791c	0.02752357
97	0xbd0e958b	-0.034810584
98	0x3d3119b2	0.043237396
99	0xbd354306	-0.04425337
100	0xbcf0762c	-0.029353224
101	0x3d34b498	0.04411754
102	0x3d55722f	0.052110847
103	0x3d2e8606	0.042608283
104	0x3b13f69f	0.0022577418
105	0x3d8fb572	0.0701703
106	0x3dae2aab	0.08504232
107	0xbd12beb3	-0.035826396
108	0x3d5ccdf8	0.053907365
109	0xbb801d9a	-0.003909779
110	0x3de2cf28	0.11074668
111	0x3d87a2ac	0.06622824
112	0x3dc8abfe	0.0979843
113	0x3e292d91	0.16521288
114	0x3d910a0c	0.070819944
115	0x3d08cab0	0.033396423
116	0xba3e82ed	-0.0007267434
117	0x3d5f92ff	0.054583546
118	0x3d5edeb1	0.054411594
119	0x3dab578d	0.08366308
120	0x3d0d8379	0.03454921
121	0x3d3b070c	0.045661017
122	0x3db1588d	0.08659468
123	0x3cec0354	0.02881018
124	0x3d3026ce	0.043005757
125	0xbddca249	-0.10773141
126	0xbce34683	-0.027743584
127	0x3d7581d6	0.059938274

action_model._discrete_distribution.branches.0.weight f4 [2, 128]
0	0xbcf16eb7	-0.029471738
1	0x3b49503c	0.003071799
2	0x3d87168d	0.06596098
3	0xbcd68077	-0.026184304
4	0xbc2ea5af	-0.010659619
5	0x3d544ef3	0.051833104
6	0xbc35e03d	-0.011100826
7	0xbddf0045	-0.10888723
8	0x3d7c1e47	0.061552312
9	0x3d76d08a	0.060257472
10	0xbd4f4108	-0.050599128
11	0xbd347d7d	-0.044064987
12	0x3dd4214e	0.10357915
13	0x3c83a4e4	0.016069837
14	0xbd251416	-0.04030236
15	0x3b184cbe	0.0023239101
16	0xbd864db3	-0.06557789
17	0x3a0af245	0.0005300383
18	0xbc903b90	-0.017606527
19	0x3c8fb582	0.017542604
20	0x3d016e3a	0.03159926
21	0xbd1fcac1	-0.03901172
22	0x3d6a0ab7	0.057139125
23	0x3d368da1	0.04456866
24	0x3d970174	0.07373324
25	0x3b10580c	0.0022025136
26	0x3d692583	0.05692054
27	0xbc5182a4	-0.012787495
28	0x3c6dbb49	0.014509984
29	0xbb96b797	-0.0045995223
30	0xbc541f84	-0.012946967
31	0x3d00208d	0.031281043
32	0xbd01a2de	-0.031649463
33	0xbcf07229	-0.02935131
34	0x3c88afcd	0.01668539
35	0x3d0f6a5a	0.035013534
36	0xbd02d073	-0.031937074
37	0xbd0f822c	-0.03503625
38	0xbbe2b7cc	-0.006918883
39	0xbc09029f	-0.008362441
40	0xbc84a7d5	-0.01619331
41	0xbc319f60	-0.010841221
42	0xbc284823	-0.010271105
43	0xbc54211d	-0.012947348
44	0x3cc0ccba	0.023535121
45	0xbcd94f53	-0.026527083
46	0x3caa1510	0.020761997
47	0xbd39bb97	-0.045344915
48	0xbd1cde0a	-0.03829769
49	0x3c258a3f	0.010103761
50	0xbce3df2d	-0.02781638
51	0xbba15e28	-0.0049245544
52	0x3cf885e1	0.030337276
53	0x3c4d3165	0.012523984
54	0x3d92ae06	0.071620986
55	0xbce7bd81	-0.028288605
56	0x3c5e68b7	0.013574771
57	0xbceeb8a7	-0.029140783
58	0xbc7d29a0	-0.015451819
59	0xbc9f2217	-0.019425435
60	0x3d747b4d	0.0596879
61	0xbc884385	-0.016633758
62	0x3c3f72cb	0.011685084
63	0xbd00ae7b	-0.031416398
64	0x3cf46312	0.029832397
65	0xbcc370c0	-0.023857474
66	0x3c95753d	0.01824438
67	0x3d13ec8d	0.036114264
68	0x3ad8eff4	0.0016551004
69	0x3ce4c22c	0.02792462
70	0xbd5ede8e	-0.054411463
71	0xbc4350c4	-0.0119211115
72	0xbce49b47	-0.027906073
73	0x3cbd784c	0.023128651
74	0x3a80cde5	0.0009826986
75	0xbcb9fce9	-0.022703605
76	0x3ce668d0	0.02812615
77	0x3d3f06c1	0.0466373
78	0xbcfcc754	-0.030856766
79	0x3d194c38	0.037426203
80	0xbba13b0b	-0.0049203685
81	0x3c05493a	0.008135134
82	0x3d0e983d	0.034813154
83	0x3b4dac71	0.00313833
84	0x3bedb4ed	0.007254234
85	0x3c09e390	0.0084160715
86	0x3ced61b9	0.028977262
87	0xbd010fda	-0.031509258
88	0x3c9fafba	0.019492973
89	0xbda0af71	-0.07845963
90	0x3d0695f3	0.032857846
91	0x3cffd96a	0.0312316
92	0xbc7e3341	-0.01551515
93	0x3d44ac16	0.048015676
94	0xbb47b1e5	-0.0030471024
95	0xbca38ee2	-0.019965593
96	0x3c6a81e1	0.014313192
97	0x3c8700de	0.016479906
98	0x3ac072e3	0.0014682676
99	0xbbc142bc	-0.005897848
100	0x3d91835b	0.07105132
101	0xbd5392c7	-0.05165365
102	0xbc9f39b7	-0.0194367
103	0x3c06782e	0.008207364
104	0xbca3a0a0	-0.019974053
105	0x3b957a02	0.0045616636
106	0x3d3848fc	0.04499148
107	0xbcf2ae66	-0.029624175
108	0xba84645e	-0.0010100713
109	0xbd70f922	-0.05883134
110	0x3cb4df1b	0.022079041
111	0xbd19b794	-0.03752859
112	0x3cf4f113	0.02990011
113	0xbc8f999d	-0.017529303
114	0x3d29d57b	0.041463356
115	0xbc87bacd	-0.016568566
116	0xbc9b8de2	-0.018988553
117	0x3d4da468	0.05020562
118	0x3cca66dd	0.024707252
119	0x3bd9db5f	0.0066484655
120	0xbbee2c61	-0.007268474
121	0xbd384839	-0.044990752
122	0x398ce87a	0.0002687609
123	0x3ce6084e	0.028080132
124	0x3c27804f	0.010223462
125	0x3ca46edc	0.020072393
126	0xbd5862a5	-0.05282845
127	0xbd31433a	-0.043277003
128	0x3ceb89bd	0.028752202
129	0x3c1e4814	0.009660739
130	0xbd41ddb2	-0.047330566
131	0x3d22d0e9	0.039750014
132	0xbc13825e	-0.00900325
133	0xbd7063e2	-0.058689006
134	0x3cf0816d	0.02935859
135	0x3df84733	0.12122955
136	0xbd70085d	-0.058601726
137	0xbd888d07	-0.06667524
138	0x3d284f12	0.041091032
139	0x3d47d1bb	0.048784
140	0xbdb59c1e	-0.088676676
141	0xbc1e1957	-0.009649596
142	0x3cd06ff0	0.025444001
143	0xbc837e9a	-0.01605158
144	0x3da0abac	0.07845244
145	0xbbcbbca6	-0.006217557
146	0x3ce3a099	0.02778654
147	0xbcf0047f	-0.029299019
148	0xbc4fa03f	-0.012672483
149	0x3d3ef8cf	0.046624
150	0xbd22e761	-0.03977144
151	0xbd5cd03d	-0.05390953
152	0xbd9adc12	-0.07561506
153	0xbc31520d	-0.010822785
154	0xbd7820d7	-0.060578194
155	0x3ce92c10	0.028463393
156	0x3b3e06f4	0.0028995844
157	0x3ba526e5	0.005040037
158	0x3cb0601a	0.0215302
159	0xbd2a8b82	-0.04163695
160	0x3ca592dd	0.020211631
161	0x3ce7f520	0.028315127
162	0xbc429a20	-0.011877567
163	0xbce18177	-0.027527554
164	0x3d1b868a	0.037970103
165	0x3d1309f8	0.03589818
166	0x3a16e583	0.0005756246
167	0x3c8c7b70	0.017148703
168	0x3bd2d210	0.006433733
169	0x3ca178f7	0.019711
170	0x3ba2403c	0.004951505
171	0x3c97a3ad	0.018510664
172	0xbbd4b480	-0.006491244
173	0x3ccfdb95	0.02537326
174	0xbd0241b0	-0.031800926
175	0x3d005f5e	0.03134095
176	0x3d1d2d92	0.038373537
177	0xbc628646	-0.013825959
178	0x3d06d5f5	0.03291889
179	0x3bd07679	0.0063617793
180	0xbc805716	-0.015666526
181	0xbbbf2c49	-0.0058341366
182	0xbda1284d	-0.07869015
183	0x3d0ce620	0.03439915
184	0xbd0a5079	-0.03376815
185	0x3c4edcd4	0.012625892
186	0x3c1289c4	0.008943979
187	0x3ca41fd9	0.020034717
188	0xbd8f376c	-0.06992993
189	0x3c9ec821	0.019382538
190	0xbc86a6a0	-0.016436875
191	0x3cdff1d9	0.027337002
192	0xbc98617a	-0.018601168
193	0x3c9bc00c	0.019012474
194	0x3bb48cf7	0.0055099684
195	0xbd47badf	-0.0487622
196	0xbc22d8d2	-0.009939389
197	0xbc7bc955	-0.0153678255
198	0x3cfc9f50	0.030837685
199	0x3d23e09e	0.040009134
200	0x3c6ed2ba	0.014576608
201	0xbbbb8fe3	-0.0057239397
202	0x3c0c0674	0.00854646
203	0x3c442373	0.011971342
204	0xbcb47e30	-0.022032827
205	0xbd456f21	-0.048201684
206	0x3d2b6d83	0.041852485
207	0xbd02a770	-0.031897962
208	0xbae1c373	-0.0017224386
209	0xbc1b4275	-0.009476294
210	0xbcf19714	-0.029490985
211	0x3c63b26d	0.0138975205
212	0xbaaacf1b	-0.0013031693
213	0xbcc5d704	-0.024150379
214	0xbcabc5c8	-0.020968333
215	0x3ccede1d	0.025252396
216	0xbbb863b3	-0.0056271194
217	0x3d89e60e	0.067333326
218	0xbcc68c93	-0.024236953
219	0xbcb46c4c	-0.022024296
220	0x3c7d7646	0.015470093
221	0xbd4d4b02	-0.05012036
222	0xba7ad81e	-0.0009568947
223	0x3cafe4fb	0.021471491
224	0xbac89f59	-0.0015306278
225	0xbbbbc688	-0.005730454
226	0xbb1b0066	-0.002365136
227	0x3c6c3835	0.014417698
228	0xbdb13796	-0.0865318
229	0x3d0d75a7	0.03453603
230	0x3d2f72fe	0.042834274
231	0xbb9cd9c6	-0.004786703
232	0x3d1d70aa	0.038437523
233	0x3c56f001	0.013118745
234	0xbce3587e	-0.027752157
235	0x3d0b4eed	0.034010816
236	0xbc59dfea	-0.013298014
237	0x3d6f52fc	0.05842875
238	0xbd16ad05	-0.036786098
239	0x3d06b3e4	0.0328864
240	0xbcc52d17	-0.024069352
241	0x39d5ca90	0.00040777447
242	0xbd3f5507	-0.046711948
243	0x3c62f2bc	0.013851818
244	0x3d0e1e98	0.034697145
245	0xbd55b338	-0.05217287
246	0xbc22739c	-0.009915259
247	0xbc82f1fa	-0.015984524
248	0x3b57c03a	0.0032920972
249	0x3d4803a8	0.048831612
250	0x3bf9d38d	0.007624096
251	0xbd0491fb	-0.03236578
252	0xbbdee0d0	-0.006801702
253	0xbc82454a	-0.01590218
254	0x3d740cfa	0.059582688
255	0x3cf792d0	0.030221373

action_model._discrete_distribution.branches.0.bias f4 [2]
0	0xbd15f8ca	-0.036614217
1	0x3d15f8c4	0.036614195

action_model._discrete_distribution.branches.1.weight f4 [3, 128]
0	0xbd5fe573	-0.05466218
1	0x3cef7ce4	0.029234357
2	0x3d6ce874	0.057838872
3	0x3c5a9642	0.013341488
4	0xbd80f927	-0.06297522
5	0x3b1f3962	0.0024295677
6	0x3d39ad5f	0.045331355
7	0x3d3d88d9	0.046273086
8	0xbae4431b	-0.0017415019
9	0xbda011c5	-0.07815889
10	0xbd3d3dae	-0.0462014
11	0xb882613b	-6.216994e-05
12	0xbdf9d14c	-0.12198123
13	0xbdabfccd	-0.08397827
14	0xbc4ba099	-0.012428426
15	0x3d6e97ef	0.058250364
16	0x3cad705c	0.021171741
17	0xbdd5dfb2	-0.10443057
18	0xbd177962	-0.036980994
19	0xbce065ef	-0.027392356
20	0xbd3f29eb	-0.046670835
21	0xbbdabb26	-0.006675142
22	0xbd4c4517	-0.049870577
23	0xbc9da78b	-0.01924493
24	0xbd2d266a	-0.042272963
25	0x3d833c9d	0.064080454
26	0xbdbf02d0	-0.09326708
27	0xbd954fc1	-0.072906025
28	0xbd2570b6	-0.040390693
29	0xbd1884b1	-0.03723592
30	0x3cfbbea5	0.030730555
31	0xbe16f5d8	-0.1474222
32	0x3da7c9f2	0.08192815
33	0xbd058ceb	-0.032605093
34	0xbd80521b	-0.062656604
35	0xbdc93aab	-0.09825643
36	0x3c27e582	0.01024759
37	0x3d5af02e	0.05345171
38	0xbd0ea84a	-0.03482846
39	0xbdb72997	-0.089434795
40	0xbd28a543	-0.04117323
41	0xbcf1a673	-0.029498314
42	0x3c3b24ce	0.011422349
43	0xbdb0d148	-0.08633667
44	0x3cd2d232	0.025734995
45	0x3e26ff7c	0.16308397
46	0x3c55714b	0.013027499
47	0x3cf7c511	0.030245336
48	0x3d472bf2	0.048625894
49	0xbd472e40	-0.04862809
50	0xbbbe0485	-0.0057988786
51	0x3dcad762	0.09904362
52	0xbd9bbb7d	-0.0760412
53	0xbc91a566	-0.017779063
54	0x3dc1ea5a	0.09468527
55	0xbc8645c2	-0.016390685
56	0x3c7ef0af	0.015560313
57	0x3c6920ef	0.014229043
58	0xbd30fd3a	-0.043210246
59	0x3d1e95e2	0.03871716
60	0x3cb692b1	0.022286745
61	0x3c705f40	0.014671147
62	0xbe0a3cba	-0.13499728
63	0x3d1efdd7	0.0388163
64	0xbd6f0f5b	-0.058364253
65	0x3dd0f083	0.10202124
66	0x3d2f279c	0.042762384
67	0xbdb85d5b	-0.09002181
68	0xb9913b16	-0.00027700578
69	0xbd45847f	-0.04822206
70	0x3d2ae6bb	0.041723948
71	0xbda4a152	-0.08038582
72	0xbcdbd761	-0.0268361
73	0xbe2fc614	-0.17165405
74	0xbd5f8d86	-0.054578327
75	0x3d85b00f	0.06527721
76	0xbd89d88a	-0.06730755
77	0x3dc75bf5	0.09734336
78	0xbd1abe84	-0.037779346
79	0xbdc1b7a2	-0.09458853
80	0xbd1a5cfa	-0.037686326
81	0xbda56777	-0.08076375
82	0xbd8d29d4	-0.06892744
83	0xbcba6392	-0.022752557
84	0xbdcb463f	-0.09925508
85	0xbddeb319	-0.10874004
86	0xbcc5fd21	-0.024168553
87	0x3d100500	0.03516102
88	0xbd4d58e1	-0.05013359
89	0x3d9aa6fd	0.07551382
90	0xbd836db4	-0.064174086
91	0x3c9da34c	0.019242905
92	0xbd35a47c	-0.044346318
93	0x3d2d6b98	0.042338938
94	0xbd8eb62a	-0.06968339
95	0xbd94b2f8	-0.07260698
96	0xbc3af8a4	-0.01141182
97	0x3c9a63aa	0.018846352
98	0xbd08e9d6	-0.03342613
99	0x3de94495	0.11390034
100	0xbd405de8	-0.046964556
101	0x3bef9f74	0.0073127095
102	0xbd1ba070	-0.037994802
103	0x3c332eb3	0.010936427
104	0x3d49bd76	0.04925295
105	0xbc792a1e	-0.015207795
106	0xbd92a7f2	-0.07160939
107	0x3d80efb9	0.062957235
108	0x3acfdf16	0.0015859331
109	0x3d51307e	0.051071636
110	0xbd8427ad	-0.0645288
111	0xbcdedc07	-0.027204527
112	0xbd9687ad	-0.07350097
113	0xbdbb45f8	-0.09144205
114	0xbe032575	-0.12807257
115	0x3d424d1b	0.047436815
116	0x3d237bce	0.03991299
117	0xbd9f1814	-0.077682644
118	0xbd879993	-0.06621089
119	0xbd24e035	-0.040252883
120	0xbcfbd3d6	-0.03074066
121	0x3d29bc68	0.041439444
122	0xbda2cee6	-0.07949619
123	0x3b873974	0.004126722
124	0xbd4d8e47	-0.050184514
125	0x3df619d7	0.12016647
126	0x3cf2181f	0.029552517
127	0xbc907ce0	-0.01763767
128	0x3ce79934	0.028271295
129	0xbca6a400	-0.020341873
130	0xbb825f05	-0.0039786124
131	0xbcadd2f7	-0.02121876
132	0x3bcde99d	0.0062839524
133	0x3cc0686c	0.023487292
134	0xbd20a387	-0.03921845
135	0x3c97624f	0.018479494
136	0xbc84982b	-0.01618584
137	0x3d896a2e	0.06709705
138	0xbd1cf7f6	-0.03832241
139	0xbc8c5777	-0.01713155
140	0x3c46b9ad	0.0121292295
141	0x3d0b8c11	0.034069125
142	0xbd810324	-0.06299427
143	0x3d55fd17	0.05224332
144	0xbd98b4b9	-0.07456345
145	0xbb8b2d7d	-0.004247366
146	0x3c947fda	0.01812737
147	0xbc11078a	-0.008851895
148	0xbd0c597b	-0.034265023
149	0x3ccce863	0.025013154
150	0x3d2b63a6	0.04184308
151	0x3d6728a3	0.05643524
152	0xbd296da1	-0.041364316
153	0xbddfc38e	-0.10925971
154	0xbc335e63	-0.0109477965
155	0x3c7498d3	0.014929014
156	0x3ca3bf1e	0.019988593
157	0x3c6d6573	0.014489519
158	0xbd085428	-0.033283383
159	0x3cca9014	0.024726905
160	0xbd66f39a	-0.05638466
161	0xbb84d0c0	-0.0040532053
162	0x3c964027	0.018341137
163	0x3d986589	0.07441241
164	0x3d6ba8ee	0.05753415
165	0x3cc76b40	0.024343133
166	0xbc86f93e	-0.01647627
167	0x3d941b95	0.07231823
168	0x3d75efcb	0.060043138
169	0x3d1d4a51	0.03840095
170	0xbab8590f	-0.0014064627
171	0x3c1f443d	0.009720859
172	0x3d5c3f45	0.053771276
173	0xbdbc1b13	-0.091848515
174	0xbd4f92e1	-0.050677184
175	0xbc5fe983	-0.013666513
176	0x3d7f77ab	0.062369984
177	0x3def801f	0.11694359
178	0x3d955030	0.07290685
179	0xbc923d66	-0.017851543
180	0xbc1d9cf6	-0.009619942
181	0xbd03ed4d	-0.03220873
182	0xbd32e02f	-0.04367083
183	0x3b8a76dd	0.0042255954
184	0xbc01f256	-0.007931313
185	0x3d266d07	0.04063132
186	0xbcac78cc	-0.021053694
187	0x3d52bce2	0.051449664
188	0xbdb57141	-0.08859492
189	0xbd8faeb8	-0.07015747
190	0x3d23b8c1	0.039971117
191	0x3c4a6b4f	0.012354686
192	0x3d138000	0.036010742
193	0xbcbb9e0d	-0.022902513
194	0xbb9a5c80	-0.004710734
195	0x3d2a40d9	0.04156575
196	0xbd6b8624	-0.057500973
197	0x3bcaa2dc	0.006183965
198	0xbd25a7c9	-0.040443216
199	0x3d04f483	0.032459747
200	0xbba559df	-0.005046114
201	0x3d5cdec8	0.0539234
202	0xbc90ea38	-0.01768981
203	0xbd464e2e	-0.0484144
204	0x3c8f0f43	0.017463332
205	0xbdd9fa60	-0.10643458
206	0x3d59ff7f	0.053222176
207	0x3d2cd886	0.04219868
208	0xbccac614	-0.024752654
209	0xbbbda117	-0.0057870257
210	0x3d132953	0.03592808
211	0x3c97d27e	0.018532988
212	0x3d4269e4	0.047464266
213	0x3d2a966f	0.04164737
214	0x3ccd04a8	0.025026634
215	0xbc65af83	-0.014018896
216	0xbcba9f69	-0.02278109
217	0x38b4f0f1	8.627948e-05
218	0x3ce8ed4d	0.028433466
219	0xbd0409bf	-0.032235857
220	0x3cb9e30e	0.022691276
221	0xbca5df05	-0.020247946
222	0xbb51976e	-0.0031981128
223	0x3c91c68a	0.017794866
224	0x3cc36593	0.023852145
225	0xbde9874b	-0.11402758
226	0x3d80955c	0.06278488
227	0xbe342609	-0.17592634
228	0xbce202e1	-0.027589263
229	0xbd90f602	-0.07078172
230	0xbd152c62	-0.03641928
231	0x3c55956d	0.013036114
232	0xbd4d14a3	-0.05006851
233	0x3bb5b6f1	0.00554549
234	0x3d288acb	0.04114799
235	0xbdd70f9d	-0.10501025
236	0xbb10e510	-0.0022109188
237	0xbd4c9c10	-0.04995352
238	0x3d1d5093	0.03840692
239	0xbd500b12	-0.050791807
240	0x3d2ff827	0.042961266
241	0xb9b9659f	-0.00035361663
242	0x3d3937ee	0.045219354
243	0x3ccb8e5b	0.024848154
244	0x3bbf819b	0.0058443076
245	0x3c325a63	0.010885808
246	0x3d4d795e	0.050164573
247	0xbcd0564f	-0.02543178
248	0xbd4e954b	-0.050435346
249	0x3d4b2f06	0.049605392
250	0xbc1a6dbd	-0.009425578
251	0x3dbb8f4b	0.0915819
252	0xbcadace9	-0.021200614
253	0xbd3008a5	-0.042976994
254	0xbb91b576	-0.0044466807
255	0xbcc86b63	-0.024465268

action_model._discrete_distribution.branches.1.bias f4 [3]
0	0xbe050b71	-0.12992646
1	0x3d80c036	0.06286661
2	0x3cff83a6	0.031190705

action_model._discrete_distribution.branches.2.weight f4 [7, 128]
0	0xbdf25d1f	-0.11834168
1	0xbdc08fd8	-0.09402436
2	0x3d252427	0.04031768
3	0xbd85a811	-0.06526197
4	0xbd58c750	-0.052924454
5	0xbd80fabe	-0.06297825
6	0x3d2e1a44	0.042505518
7	0x3dbc57b3	0.09196415
8	0xbd12bfd4	-0.035827473
9	0x3cde1386	0.027108919
10	0xbd5820ce	-0.05276566
11	0xbdac356e	-0.084086284
12	0x3d3f2c80	0.046673298
13	0xbd85c9d6	-0.06532638
14	0xbde41b0c	-0.11137971
15	0x3dbf72d7	0.09348076
16	0x3da9320c	0.08261499
17	0xbe0ad0b5	-0.13556178
18	0xbe192fa8	-0.14959586
19	0xbcfa579f	-0.03055936
20	0xbd113c7d	-0.035458077
21	0x3d58a95d	0.052895892
22	0xbcb4537f	-0.02201247
23	0xbd3ba1c3	-0.045808565
24	0xbc8b2193	-0.016983783
25	0x3d74d604	0.059774414
26	0xbd214cd4	-0.03937991
27	0xbd39a00f	-0.04531866
28	0xbda24076	-0.07922451
29	0xbd889894	-0.06669727
30	0xbc70c3e6	-0.014695143
31	0xbde5b5c8	-0.11216313
32	0xbc9cc3c4	-0.019136317
33	0xbd39a46a	-0.045322813
34	0xbdaeaab4	-0.08528653
35	0xbd3c5cba	-0.04598687
36	0x3d0432a5	0.03227486
37	0x3dd189b3	0.10231342
38	0xbdc551e9	-0.09634764
39	0xbda2b204	-0.0794411
40	0x3a94e202	0.001135886
41	0xbd47056a	-0.048589148
42	0xbd97176f	-0.073775165
43	0xbd18b10f	-0.03727823
44	0x3cc04acf	0.023473172
45	0x3de30b39	0.11086125
46	0x3aed6e55	0.0018114547
47	0xbd585fa5	-0.05282559
48	0xbd486786	-0.048926853
49	0xbe0b8083	-0.13623242
50	0x3d886459	0.06659765
51	0x3d5cecb5	0.05393668
52	0xbda39c88	-0.0798884
53	0x3d2fb55b	0.042897563
54	0xbd2f0bd4	-0.04273589
55	0xbd8e093c	-0.06935355
56	0x3cfad1d6	0.030617636
57	0xbcf5620f	-0.029953985
58	0x3da7446f	0.081673495
59	0xbc315acf	-0.010824873
60	0x3dc9ca0a	0.09852989
61	0x3d8bbe86	0.06823449
62	0xbdfa684e	-0.12226926
63	0xbaa35bb7	-0.0012463246
64	0xbdb5f612	-0.08884825
65	0x3c60e56d	0.013726574
66	0xbd7a32b7	-0.06108352
67	0x3c9709eb	0.018437346
68	0x3cb37386	0.021905672
69	0xbda305d4	-0.07960096
70	0xbd92276c	-0.071364254
71	0xbdbba391	-0.09162057
72	0xbc317953	-0.010832149
73	0xbc39f440	-0.011349738
74	0xbd9c9f6f	-0.07647597
75	0x3c376ff5	0.011196126
76	0xbd69030c	-0.05688767
77	0x3dca90b4	0.09890881
78	0xbda907ab	-0.08253416
79	0xbd3ea304	-0.046542183
80	0xbd43c055	-0.047790844
81	0xbe0801fe	-0.1328201
82	0xbd71f3f7	-0.059070554
83	0xbdc64672	-0.09681405
84	0xbd7c0714	-0.061530188
85	0xbd7893d3	-0.06068785
86	0xbdce3d4d	-0.10070286
87	0xbd544ff5	-0.051834065
88	0xbcae3cc4	-0.02126921
89	0x3d80d01f	0.06289696
90	0xbcb4ac78	-0.022054896
91	0x3cc5b249	0.024132865
92	0xbd904848	-0.070450366
93	0xbcb9e773	-0.022693371
94	0xbe1391f8	-0.14411151
95	0xbe13c6b7	-0.14431272
96	0xbd7fa14f	-0.062409695
97	0xbc1568bd	-0.00911921
98	0xbd32bc8c	-0.043636844
99	0x3da36544	0.07978299
100	0xbbdaf126	-0.006681579
101	0x3d8ff2a2	0.070287004
102	0xbd48882d	-0.048957992
103	0xbd673bb3	-0.056453418
104	0x3d2d8638	0.04236433
105	0xbdc03195	-0.09384457
106	0xbdbf76b2	-0.09348811
107	0x3ce4bf09	0.027923124
108	0xbd4cc5a7	-0.049993183
109	0x3cdef89c	0.027218156
110	0xbe031daf	-0.12804292
111	0xbc951e8c	-0.018203042
112	0xbdc5697d	-0.09639261
113	0xbe0706b8	-0.13186157
114	0xbd96d8f9	-0.07365603
115	0xbd9a7eef	-0.07543742
116	0x3e19e14d	0.15027352
117	0xbddd94ff	-0.108194344
118	0xbd19fda2	-0.0375954
119	0xbceaf094	-0.02867917
120	0x3d57eb22	0.052714474
121	0x3c9e3a20	0.019314826
122	0xbd9b3f83	-0.07580473
123	0xb9fcaaed	-0.00048192535
124	0xbcf133a4	-0.02944357
125	0x3d9f6751	0.07783378
126	0x3d96655c	0.073435515
127	0xbd46a059	-0.048492763
128	0xbd15d7e5	-0.036582846
129	0xbc23958b	-0.009984384
130	0x3d311b10	0.0432387
131	0xbcb77a7b	-0.02239727
132	0x3d396bb6	0.045268737
133	0x3cab5089	0.020912426
134	0xbbd00fd7	-0.0063495445
135	0xbd805bd8	-0.06267518
136	0x3bf1cc5a	0.007379097
137	0xbc5aac3b	-0.013346727
138	0x38f6c98e	0.000117677366
139	0xbcec271b	-0.02882724
140	0xbcf35fab	-0.029708704
141	0x3c8e3d8d	0.017363334
142	0x3d25c3d9	0.040469978
143	0x3bda340a	0.0066590356
144	0xbd7602ff	-0.06006145
145	0x3c0d9988	0.008642562
146	0x3d335bb9	0.043788645
147	0x3d9365ab	0.07197126
148	0xbd4a9b52	-0.04946453
149	0xbd746562	-0.059667
150	0x3d107adc	0.035273418
151	0x3d9106d0	0.070813775
152	0xbd26b70e	-0.04070192
153	0xbc290280	-0.010315537
154	0xbbed7ab8	-0.007247295
155	0x3ce890c1	0.028389337
156	0xbc270990	-0.010195151
157	0x3d500ca0	0.05079329
158	0xbc8511de	-0.016243871
159	0xbbc864c9	-0.00611553
160	0xbd05411b	-0.032532793
161	0x3c991970	0.018688887
162	0x3d391799	0.04518852
163	0x3c9214fa	0.017832268
164	0x3cdbb6e7	0.026820613
165	0x3cbf7d49	0.02337517
166	0x3c9e9354	0.01935736
167	0x3d06fd29	0.032956276
168	0xbd265a70	-0.04061359
169	0x3bbb24b7	0.005711164
170	0xbcb2fcf6	-0.021849137
171	0xbbda2266	-0.0066569326
172	0x3c99fc2e	0.018797006
173	0x3d29bdce	0.041440777
174	0xbc9365b2	-0.017992828
175	0x3c780e68	0.0151401535
176	0x3c670053	0.014099198
177	0x3bb2c019	0.0054550287
178	0x3b2f2aaa	0.002672831
179	0xbd0d3907	-0.034478214
180	0x3db87379	0.090064
181	0xbd29097f	-0.04126882
182	0x3d199490	0.037495196
183	0x3cd677fa	0.026180256
184	0xbd9cdd19	-0.076593585
185	0x3d8b1ff4	0.06793204
186	0xbdab2ed1	-0.08358539
187	0x3d4c57be	0.049888365
188	0xbd411743	-0.047141325
189	0xbcdca718	-0.026935145
190	0x3b069068	0.002053285
191	0xbd2ea0d5	-0.04263385
192	0xbc6ec859	-0.014574134
193	0x3bfab986	0.0076515106
194	0xbd9447ca	-0.07240255
195	0xbda2ca59	-0.07948751
196	0x3c22df15	0.009940882
197	0xbc4e3175	-0.012585034
198	0xbc8e6341	-0.017381312
199	0x3c59a625	0.013284241
200	0xbd6513b6	-0.055927
201	0x3c89bcd3	0.016813671
202	0xbd0062a8	-0.031344086
203	0xbce6bf09	-0.028167265
204	0x3d65e8d6	0.056130253
205	0xba6eabf6	-0.00091046037
206	0x3ce06c82	0.02739549
207	0xbce2447b	-0.027620545
208	0x3c88de66	0.01670761
209	0x3ce05647	0.02738489
210	0xbd1ca9ee	-0.038247995
211	0x3c1a98b2	0.009435819
212	0xbc3fff81	-0.011718632
213	0xbc9480b2	-0.018127773
214	0x3bc94482	0.0061422
215	0xbcc70506	-0.024294388
216	0x3c8f2d61	0.017477693
217	0xbcb990da	-0.022652078
218	0xbd08c1ab	-0.03338782
219	0xbc353b29	-0.011061468
220	0x3cefb77a	0.029262293
221	0xbcc8977a	-0.024486292
222	0xbcf041f5	-0.029328326
223	0x3d0c8c53	0.03431351
224	0xbbce390a	-0.0062934207
225	0x3c7b3edd	0.015334812
226	0xbc9f4e38	-0.019446477
227	0x3d214f48	0.03938225
228	0xbd24890b	-0.040169757
229	0xbd2ae80b	-0.0417252
230	0xbb770ec0	-0.0037698
231	0x3b2f6ef5	0.0026769016
232	0x3d99cba8	0.075095475
233	0xbd4cc575	-0.049992997
234	0x3c5ee763	0.013604972
235	0x3ca3954c	0.019968651
236	0x3d93bb31	0.07213438
237	0xbd5a0793	-0.05322988
238	0x3c43c444	0.011948649
239	0xbd6dae68	-0.058027655
240	0x3c6a21f4	0.014290322
241	0xbd16dc36	-0.036831103
242	0xbd55482a	-0.052070774
243	0x3d529791	0.051414076
244	0xbd18fe0b	-0.03735165
245	0xbb268210	-0.0025407113
246	0x3bd2feae	0.0064390516
247	0x3bc652b5	0.00605234
248	0x3c881e50	0.016616017
249	0xbc9dd14a	-0.019264836
250	0xbcd9764f	-0.026545672
251	0x3cf222f6	0.029557686
252	0x37c0d354	2.2986591e-05
253	0x3bd91520	0.0066248327
254	0xbc4d23a1	-0.012520702
255	0x3d813e65	0.06310729

action_model._discrete_distribution.branches.2.bias f4 [7]
0	0xbe08e2c0	-0.13367748
1	0x3c80c7bf	0.015720246
2	0x3d161d4a	0.036649026
3	0xbbb32760	-0.0054673404
4	0xbc14ce2e	-0.00908236
5	0x3b32de38	0.0027293097
6	0x3d8f3c3d	0.069939114

onnx::Div_84 f4 [22]
0	0x403bef27	2.9364717
1	0x3e64fb70	0.22361541
2	0x40967f8e	4.7030706
3	0x40a2cca4	5.0874805
4	0x40a37e9c	5.1092052
5	0x40b22d9a	5.5680666
6	0x408d3696	4.4129133
7	0x40a30f56	5.095622
8	0x4055582d	3.3335068
9	0x40a8b179	5.271664
10	0x40a195ec	5.049551
11	0x40961847	4.6904635
12	0x40b0259b	5.5045905
13	0x40813104	4.0372334
14	0x40c96572	6.2936335
15	0x3fe0c5a9	1.7560321
16	0x3a830d8d	0.0009998545
17	0x3f900427	1.1251267
18	0x3a830d8d	0.0009998545
19	0x3ffd1f6e	1.9775217
20	0x3c06487b	0.008195992
21	0x3ff53048	1.9155359
